Execution of CNN training with drop out and with relu

Model: "CNN_with_dropout_and_with_relu"
_________________________________________________________________
 Layer (type)                Output Shape              Param #   
=================================================================
 first_filters (Conv2D)      (None, 26, 26, 3)         30        
                                                                 
 batch_normalization_4 (Batc  (None, 26, 26, 3)        12        
 hNormalization)                                                 
                                                                 
 MaxPool1 (MaxPooling2D)     (None, 13, 13, 3)         0         
                                                                 
 second_filters (Conv2D)     (None, 11, 11, 3)         84        
                                                                 
 batch_normalization_5 (Batc  (None, 11, 11, 3)        12        
 hNormalization)                                                 
                                                                 
 MaxPool2 (MaxPooling2D)     (None, 5, 5, 3)           0         
                                                                 
 Flatten_of_Convs_Output (Fl  (None, 75)               0         
 atten)                                                          
                                                                 
 Hidden_Layer_1 (Dense)      (None, 1024)              77824     
                                                                 
 Dropout_1 (Dropout)         (None, 1024)              0         
                                                                 
 Hidden_Layer_2 (Dense)      (None, 512)               524800    
                                                                 
 Dropout_2 (Dropout)         (None, 512)               0         
                                                                 
 Output_Layer (Dense)        (None, 24)                12312     
                                                                 
=================================================================
Total params: 615,074
Trainable params: 615,062
Non-trainable params: 12
_________________________________________________________________
Epoch 1/50
687/687 [==============================] - 15s 21ms/step - loss: 0.4361 - sparse_categorical_accuracy: 0.8690 - val_loss: 0.0251 - val_sparse_categorical_accuracy: 0.9971
…
          21       0.60      0.89      0.72       206
          22       0.78      0.64      0.70       267
          23       0.78      0.90      0.84       332

    accuracy                           0.81      7172
   macro avg       0.81      0.80      0.79      7172
weighted avg       0.84      0.81      0.81      7172

Execution of CNN training with drop out and with PReLU

Model: "CNN_with_dropout_and_with_PReLU"
_________________________________________________________________
 Layer (type)                Output Shape              Param #   
=================================================================
 first_filters (Conv2D)      (None, 26, 26, 3)         30        
                                                                 
 batch_normalization_6 (Batc  (None, 26, 26, 3)        12        
 hNormalization)                                                 
                                                                 
 MaxPool1 (MaxPooling2D)     (None, 13, 13, 3)         0         
                                                                 
 second_filters (Conv2D)     (None, 11, 11, 3)         84        
                                                                 
 batch_normalization_7 (Batc  (None, 11, 11, 3)        12        
 hNormalization)                                                 
                                                                 
 MaxPool2 (MaxPooling2D)     (None, 5, 5, 3)           0         
                                                                 
 Flatten_of_Convs_Output (Fl  (None, 75)               0         
 atten)                                                          
                                                                 
 Hidden_Layer_1 (Dense)      (None, 1024)              78848     
                                                                 
 Dropout_1 (Dropout)         (None, 1024)              0         
                                                                 
 Hidden_Layer_2 (Dense)      (None, 512)               525312    
                                                                 
 Dropout_2 (Dropout)         (None, 512)               0         
                                                                 
 Output_Layer (Dense)        (None, 24)                12312     
                                                                 
=================================================================
Total params: 616,610
Trainable params: 616,598
Non-trainable params: 12
_________________________________________________________________
Epoch 1/50
687/687 [==============================] - 15s 20ms/step - loss: 0.4430 - sparse_categorical_accuracy: 0.8647 - val_loss: 0.0661 - val_sparse_categorical_accuracy: 0.9834
…
