Execution of CNN training without drop out and with relu

Model: "CNN_without_dropout_and_with_relu"
_________________________________________________________________
 Layer (type)                Output Shape              Param #   
=================================================================
 first_filters (Conv2D)      (None, 26, 26, 3)         30        
                                                                 
 batch_normalization_16 (Bat  (None, 26, 26, 3)        12        
 chNormalization)                                                
                                                                 
 MaxPool1 (MaxPooling2D)     (None, 13, 13, 3)         0         
                                                                 
 second_filters (Conv2D)     (None, 11, 11, 3)         84        
                                                                 
 batch_normalization_17 (Bat  (None, 11, 11, 3)        12        
 chNormalization)                                                
                                                                 
 MaxPool2 (MaxPooling2D)     (None, 5, 5, 3)           0         
                                                                 
 Flatten_of_Convs_Output (Fl  (None, 75)               0         
 atten)                                                          
                                                                 
 Hidden_Layer_1 (Dense)      (None, 1024)              77824     
                                                                 
 Hidden_Layer_2 (Dense)      (None, 512)               524800    
                                                                 
 Output_Layer (Dense)        (None, 24)                12312     
                                                                 
=================================================================
Total params: 615,074
Trainable params: 615,062
Non-trainable params: 12
_________________________________________________________________
Epoch 1/50
687/687 [==============================] - 13s 18ms/step - loss: 0.3636 - sparse_categorical_accuracy: 0.8964 - val_loss: 0.0176 - val_sparse_categorical_accuracy: 0.9980
…
          22       0.81      0.88      0.84       267
          23       0.77      0.70      0.73       332

    accuracy                           0.83      7172
   macro avg       0.82      0.82      0.82      7172
weighted avg       0.84      0.83      0.83      7172

Execution of CNN training without drop out and with PReLU

Model: "CNN_without_dropout_and_with_PReLU"
_________________________________________________________________
 Layer (type)                Output Shape              Param #   
=================================================================
 first_filters (Conv2D)      (None, 26, 26, 3)         30        
                                                                 
 batch_normalization_18 (Bat  (None, 26, 26, 3)        12        
 chNormalization)                                                
                                                                 
 MaxPool1 (MaxPooling2D)     (None, 13, 13, 3)         0         
                                                                 
 second_filters (Conv2D)     (None, 11, 11, 3)         84        
                                                                 
 batch_normalization_19 (Bat  (None, 11, 11, 3)        12        
 chNormalization)                                                
                                                                 
 MaxPool2 (MaxPooling2D)     (None, 5, 5, 3)           0         
                                                                 
 Flatten_of_Convs_Output (Fl  (None, 75)               0         
 atten)                                                          
                                                                 
 Hidden_Layer_1 (Dense)      (None, 1024)              78848     
                                                                 
 Hidden_Layer_2 (Dense)      (None, 512)               525312    
                                                                 
 Output_Layer (Dense)        (None, 24)                12312     
                                                                 
=================================================================
Total params: 616,610
Trainable params: 616,598
Non-trainable params: 12
_________________________________________________________________
Epoch 1/50
687/687 [==============================] - 14s 19ms/step - loss: 0.4745 - sparse_categorical_accuracy: 0.8595 - val_loss: 0.0319 - val_sparse_categorical_accuracy: 0.9925
…
